checkpoint/model_lastest.pth (torch, 103173 bytes, 28 tensors)

bias f4 [32]
0	0x3d83766e	0.06419073
1	0xbe24c5c8	-0.16091073
2	0x3c588446	0.01321513
3	0x3d30f885	0.043205757
4	0xbe791730	-0.24325252
5	0xbc6060a8	-0.01369492
6	0x3e983907	0.29731008
7	0xbc234ccc	-0.00996704
8	0xbea5e91f	-0.3240442
9	0xbd9efcbc	-0.07763049
10	0x3ca18433	0.019716358
11	0xbe2064fe	-0.15663525
12	0xbeac52e1	-0.33656982
13	0xba9402e6	-0.0011292368
14	0xbc69cef4	-0.014270533
15	0x3e3b3f3e	0.18285844
16	0xbe861ffd	-0.2619628
17	0x3e84909e	0.25891584
18	0xbe4058bd	-0.18783851
19	0xbe82843d	-0.25491515
20	0xbdd0bcf7	-0.10192292
21	0xbe5689e5	-0.2095104
22	0xbeb2c7d0	-0.3491807
23	0x3bd795b6	0.006579126
24	0xbe838794	-0.25689375
25	0xbeebab44	-0.46029103
26	0xbe377898	-0.17917097
27	0x3e20bb33	0.15696411
28	0xbae2a2d2	-0.0017290956
29	0xbe0d3777	-0.1379069
30	0xbe3b078e	-0.182646
31	0xbec59cf2	-0.38596302

weight_g f4 [32, 1, 1]
0	0x40938287	4.6096835
1	0x3efa8107	0.48926565
2	0x402db8e2	2.7144094
3	0x40a98766	5.297778
4	0x3ee30232	0.44337612
5	0x3f8ce1ef	1.100645
6	0x3f85db2c	1.0457511
7	0x3fc649a2	1.5491221
8	0x3f10e3da	0.56597674
9	0x3f15ce94	0.5851834
10	0x40358dbd	2.836776
11	0x3f3023e3	0.6880476
12	0x3f208b16	0.6271223
13	0x4013b5a2	2.307961
14	0x4056c7d2	3.355946
15	0x3f9d4d68	1.2289248
16	0x3f23f5bd	0.6404684
17	0x3f906448	1.1280603
18	0x3f0f6bda	0.56023943
19	0x3f194b9f	0.59881014
20	0x3f045ffa	0.5170895
21	0x3f0a18f5	0.5394433
22	0x3f56c134	0.83888555
23	0x3fce2d06	1.610749
24	0x3efad4fe	0.48990625
25	0x3f6cbd71	0.92476565
26	0x3ec2f17d	0.38074866
27	0x3f532649	0.82480294
28	0x4000bf3c	2.011672
29	0x3f1eb9a6	0.6200203
30	0x3f61c0aa	0.8818461
31	0x3f606382	0.87651837

weight_v f4 [32, 4, 2]
0	0xbe090506	-0.13380823
1	0xbe0fbdc5	-0.14037235
2	0xbeb2f80e	-0.34954876
3	0xbece35a2	-0.40275294
4	0x3c7036d8	0.014661513
5	0x3d803747	0.06260543
6	0xba2aa503	-0.0006509574
7	0xbc06a6fc	-0.008218523
8	0xbce8db39	-0.028424846
9	0xbe24a796	-0.16079554
10	0xbe1b23ef	-0.15150426
11	0x3dc44702	0.09583856
12	0x3e9a7930	0.30170584
13	0x3e122d16	0.14275011
14	0x3e85984c	0.26092756
15	0xbd07598f	-0.033044394
16	0x3cad937f	0.021188496
17	0xbe7f9b1e	-0.24961516
18	0x3f84a134	1.0361695
19	0xbf343102	-0.7038728
20	0xbe4c5eb1	-0.19957997
21	0x3d05a2ac	0.03262584
22	0xbd86c6e8	-0.06580907
23	0x3b1d48da	0.0023999722
24	0x3d9b3ac0	0.07579565
25	0xbe59411f	-0.21216248
26	0xbf8b5be5	-1.0887419
27	0xbe999d36	-0.30002755
28	0x3d826583	0.06367018
29	0xbedcd245	-0.43129173
30	0xbddeaf5a	-0.108732894
31	0xbd7db5bc	-0.061940894
32	0x3b465244	0.0030261436
33	0xbe827c00	-0.2548523
34	0x3ddb2e94	0.107022434
35	0x3d5d059f	0.05396044
36	0xbd82097b	-0.063494645
37	0x3e2af0d7	0.16693436
38	0xbc948302	-0.018128876
39	0xbe954ca1	-0.29160026
40	0x3e080cbd	0.1328611
41	0xbe4bfd43	-0.1992083
42	0x3eeddc4e	0.46457142
43	0xbeee0ea3	-0.46495542
44	0xbdd94287	-0.10608392
45	0xbb8e2f17	-0.0043391096
46	0x3c471308	0.0121505335
47	0x3bd74c01	0.0065703397
48	0xbe90b1f0	-0.28260756
49	0xbe9e6e0e	-0.3094334
50	0xbed71211	-0.4200597
51	0xbddb935a	-0.107214645
52	0x3ca73ebc	0.020415656
53	0x3b1b8d3d	0.0023735308
54	0xb9758f25	-0.00023418346
55	0xb98a8c49	-0.00026425932
56	0x3ccfbe42	0.025359277
57	0x3c587937	0.013212494
58	0x3fb5f5c1	1.4215623
59	0xbc706b63	-0.0146740405
60	0xbdb3c5f2	-0.087779894
61	0x3d80c2c3	0.06287148
62	0x3b84cc05	0.0040526413
63	0xbc34df13	-0.011039513
64	0x3e945813	0.28973445
65	0xbe323e6e	-0.17406628
66	0xbe7da6b5	-0.24770625
67	0x3ea0635a	0.313258
68	0x3d3a85dc	0.045537814
69	0xbde03118	-0.10946864
70	0xbe2daada	-0.16959706
71	0x3d7bac41	0.06144357
72	0xbca2058f	-0.019778041
73	0xbe3b4757	-0.18288933
74	0x3e8ece7e	0.27891916
75	0x3e361b8a	0.17783943
76	0x3d529e38	0.05142042
77	0xbd9f1275	-0.07767192
78	0x3eab4bca	0.3345626
79	0xbe8f8375	-0.2802998
80	0xbdf556ff	-0.11979484
81	0x3d886ab8	0.0666098
82	0xbfb489b6	-1.4104526
83	0x3f56df22	0.83934224
84	0xbd98b5fb	-0.07456585
85	0xbdb7757b	-0.089579545
86	0x3db2bc35	0.08727304
87	0x3e1a3cf0	0.15062308
88	0x3d81308e	0.06308089
89	0x3e2ec89a	0.17068711
90	0x3e7dce6e	0.24785778
91	0xbd765e20	-0.06014836
92	0xbea66f2c	-0.32506692
93	0xbe9b018a	-0.30274612
94	0xbeae3884	-0.34027493
95	0xbe7f3fed	-0.2492673
96	0xbe4978f1	-0.19675042
97	0xbe87f152	-0.265513
98	0xbe988bac	-0.2979406
99	0x3dd79ff0	0.105285525
100	0x3e34b147	0.17645751
101	0x3e5b0dee	0.21392033
102	0xbd059e83	-0.03262187
103	0x3ea6e5bf	0.32597157
104	0xbde46c5d	-0.11153481
105	0x3db27544	0.08713773
106	0xbf2dc688	-0.6788106
107	0x3f35d5c6	0.7102932
108	0xbdfb9ac4	-0.122853786
109	0xbc4847ea	-0.012224177
110	0xbc77ff5d	-0.015136567
111	0x3d8bcee5	0.068265714
112	0xbc9562ad	-0.018235529
113	0xbd0f7f86	-0.035033725
114	0xbe456e2f	-0.19280313
115	0x4015edac	2.3426313
116	0xbe237ff9	-0.15966786
117	0xbe0e318d	-0.1388609
118	0xbb4f44b3	-0.0031626641
119	0x3c740c1d	0.014895466
120	0xbed3be4c	-0.41356122
121	0xbe22ce12	-0.15898922
122	0xbd600390	-0.054690897
123	0xbef29ca1	-0.47385123
124	0xbc86f8a5	-0.016475985
125	0x3d4751e3	0.048662078
126	0x39f2a038	0.0004627721
127	0x399d23f2	0.00029972155
128	0x3eaadbc6	0.333708
129	0xbdc908e3	-0.09816148
130	0x3e9c6ad1	0.30550244
131	0xbe7a99cc	-0.24472731
132	0x3daacbba	0.08339639
133	0xbe85e1ba	-0.26148778
134	0x3e5eced5	0.21758588
135	0x3dec3c36	0.11534922
136	0xbf0714b2	-0.52765954
137	0xbe8cc6fc	-0.27495563
138	0x3e00c6b7	0.12575804
139	0xbea2cf34	-0.31798708
140	0xbc378685	-0.011201506
141	0x3c908347	0.017640723
142	0x3b09e0d8	0.0021038558
143	0x38aa8ea2	8.132799e-05
144	0xbe5b68ea	-0.2142674
145	0x3dd4e978	0.10396093
146	0xbe64492c	-0.22293538
147	0x3e9e317c	0.3089713
148	0x3e714734	0.23562318
149	0xbe2b5d6f	-0.16734861
150	0xbe23b09b	-0.15985338
151	0xbd5cef87	-0.05393937
152	0xbe7a0543	-0.2441607
153	0xbdea15e2	-0.11429955
154	0x3dcc9b93	0.09990611
155	0x3e93047d	0.28714362
156	0x3c85aa66	0.016316604
157	0x3e8d4883	0.27594385
158	0x3e544390	0.20728898
159	0x3e8b5b34	0.2721802
160	0xbc4a8f52	-0.012363272
161	0xbe7764f5	-0.24159606
162	0xbe669f46	-0.22521695
163	0x3e862f45	0.2620794
164	0x3e1fa276	0.15589318
165	0xbdf40e63	-0.119168065
166	0x3c5e3ced	0.0135643305
167	0xbe66b75c	-0.22530884
168	0x3e60bf07	0.21947871
169	0x3d184af5	0.03718086
170	0xb832e58b	-4.2652286e-05
171	0xbe7b7307	-0.24555598
172	0x3e94f61e	0.29094023
173	0xbe484b22	-0.19559911
174	0xbea8f834	-0.33001864
175	0x3dea201c	0.114319056
176	0x3db858c0	0.09001303
177	0x3f15a4f3	0.5845482
178	0xbe4a9171	-0.19782044
179	0xbe19d23e	-0.15021607
180	0x3d71602b	0.058929604
181	0x3900d172	0.00012285056
182	0x3e17832d	0.14796133
183	0xbdd01682	-0.10160543
184	0x3e063ce3	0.13109164
185	0xbe65e207	-0.22449504
186	0x3f84cb42	1.0374529
187	0xbf124048	-0.57129335
188	0xbe293202	-0.16522983
189	0xbda2e829	-0.07954437
190	0x3d2ecdf3	0.042676877
191	0x3d0dbe2b	0.034605186
192	0xbe0e4e65	-0.13897093
193	0xbe57ff68	-0.21093524
194	0x3e8475a0	0.2587099
195	0xbd6073f0	-0.054798067
196	0xbe5a7ffe	-0.21337888
197	0xbd233ab2	-0.039850898
198	0xbe6edf01	-0.23327257
199	0xbd8ce60c	-0.068798155
200	0x3fa8d993	1.3191398
201	0x3cc545ae	0.024081077
202	0x3e35283e	0.17691132
203	0xbcc5a9b1	-0.024128767
204	0xba8c8038	-0.0010719365
205	0xbc123956	-0.008924803
206	0x39ab6f28	0.0003269848
207	0x38cf6bc9	9.890606e-05
208	0x3e41554f	0.18880199
209	0xbdc141da	-0.09436388
210	0x3d84870d	0.064710714
211	0x3d6043a2	0.054752
212	0xbe2edd29	-0.17076553
213	0x3e3d3ef5	0.18481047
214	0x3e30af9f	0.17254494
215	0xbc45f7ef	-0.012083038
216	0xbe7d7c8d	-0.24754544
217	0xbe716269	-0.23572697
218	0xbe8bb96a	-0.27289897
219	0xbf0bd69b	-0.54624337
220	0x3e473811	0.19454981
221	0x3ded047f	0.11573123
222	0x3a3a169f	0.0007098708
223	0x39283912	0.00016042989
224	0xbe966c6c	-0.29379594
225	0x3e8856f2	0.26628834
226	0xbf1b78bb	-0.60731095
227	0x3f75aa5e	0.95963085
228	0xbdfee5f6	-0.12446205
229	0xbd845bca	-0.0646282
230	0x3d0e16ac	0.03468959
231	0x3d8a854a	0.06763704
232	0xbd58a29b	-0.052889448
233	0xbe0bb83f	-0.13644503
234	0x3e8e512b	0.277963
235	0xbe86cf01	-0.26329806
236	0x3dfdf464	0.124001294
237	0xbeb242ac	-0.34816492
238	0x3e13fe43	0.14452462
239	0x3e789988	0.24277318
240	0xbe5e8ab4	-0.21732599
241	0x3e9a0a9b	0.30086216
242	0xbeb019ff	-0.34394833
243	0xbec5d15d	-0.38636294
244	0x3ec66fc7	0.38757154
245	0xbec40348	-0.38283753
246	0xbec1e0f0	-0.37866926
247	0x3ec2e695	0.38066545
248	0x3c409238	0.011753611
249	0x3f184c92	0.5949184
250	0xbdf2bfc5	-0.118529834
251	0x3e74cdea	0.23906675
252	0x39e8eaa1	0.000444253
253	0x3e1ab845	0.15109356
254	0x3a22140a	0.00061827956
255	0x3931e27a	0.00016964404

weight f4 [32, 4, 2]
0	0xbf8a3c2c	-1.0799613
1	0xbf91042e	-1.13294
2	0xc0348e76	-2.8211951
3	0xc05009e6	-3.2506042
4	0x3df25854	0.118332535
5	0x3f015a6f	0.50528616
6	0xbbac2884	-0.0052538533
7	0xbd87d8c1	-0.066331394
8	0xbce8db39	-0.028424846
9	0xbe24a796	-0.16079554
10	0xbe1b23f0	-0.15150428
11	0x3dc44702	0.09583856
12	0x3e9a7930	0.30170584
13	0x3e122d16	0.14275011
14	0x3e85984d	0.2609276
15	0xbd07598f	-0.033044394
16	0x3d35e941	0.0444119
17	0xbf05f0a1	-0.52320296
18	0x400aff9c	2.1718512
19	0xbfbcd816	-1.4753444
20	0xbed62efe	-0.41832727
21	0x3d8c0d71	0.06838501
22	0xbe0d3fb5	-0.13793834
23	0x3ba4d656	0.0050304336
24	0x3ea61c6f	0.32443568
25	0xbf687be0	-0.9081402
26	0xc09520c5	-4.66025
27	0xbfa461e8	-1.2842379
28	0x3e8b898e	0.27253383
29	0xbfec4d09	-1.8461009
30	0xbeee4b90	-0.46542025
31	0xbe87bf5a	-0.26513177
32	0x3b465243	0.0030261434
33	0xbe827bff	-0.25485227
34	0x3ddb2e92	0.10702242
35	0x3d5d059d	0.05396043
36	0xbd82097a	-0.06349464
37	0x3e2af0d6	0.16693434
38	0xbc948301	-0.018128874
39	0xbe954ca0	-0.29160023
40	0x3e5398bb	0.20663731
41	0xbe9ea18f	-0.30982634
42	0x3f38f88b	0.72254246
43	0xbf391faf	-0.7231397
44	0xbe28f36c	-0.16499108
45	0xbbdd2314	-0.0067485664
46	0x3c9acf1b	0.018897584
47	0x3c276ca4	0.010218773
48	0xbefacece	-0.48985904
49	0xbf094ebd	-0.5363577
50	0xbf3a6592	-0.72811234
51	0xbe3e4d18	-0.18584096
52	0x3d10f28d	0.035387564
53	0x3b86d029	0.00411417
54	0xb9d4d20d	-0.0004059229
55	0xb9f0271a	-0.000458055
56	0x3ce1ab52	0.027547512
57	0x3c6b2721	0.014352591
58	0x3fc5a942	1.5442278
59	0xbc829522	-0.015940253
60	0xbdc34925	-0.095354356
61	0x3d8bdf19	0.06829662
62	0x3b904183	0.004402341
63	0xbc447a89	-0.011992105
64	0x3e945814	0.28973448
65	0xbe323e6f	-0.17406629
66	0xbe7da6b8	-0.2477063
67	0x3ea0635c	0.31325805
68	0x3d3a85de	0.045537822
69	0xbde0311a	-0.109468654
70	0xbe2daadb	-0.16959707
71	0x3d7bac44	0.061443582
72	0xbca20591	-0.019778045
73	0xbe3b4759	-0.18288936
74	0x3e8ece7f	0.2789192
75	0x3e361b8c	0.17783946
76	0x3d529e39	0.051420424
77	0xbd9f1276	-0.07767193
78	0x3eab4bcb	0.33456263
79	0xbe8f8376	-0.28029984
80	0xbe51983e	-0.20468232
81	0x3de91536	0.11380999
82	0xc01a3bf5	-2.4099095
83	0x3fb790cb	1.4341062
84	0xbe027621	-0.12740375
85	0xbe1cbac8	-0.15305626
86	0x3e18b1b1	0.14911534
87	0x3e83c420	0.2573557
88	0x3d81308e	0.06308089
89	0x3e2ec899	0.1706871
90	0x3e7dce6d	0.24785776
91	0xbd765e1e	-0.06014835
92	0xbea66f2b	-0.3250669
93	0xbe9b0189	-0.3027461
94	0xbeae3883	-0.3402749
95	0xbe7f3fec	-0.24926728
96	0xbe4978f0	-0.1967504
97	0xbe87f152	-0.265513
98	0xbe988bac	-0.2979406
99	0x3dd79fef	0.10528552
100	0x3e34b146	0.1764575
101	0x3e5b0ded	0.21392031
102	0xbd059e83	-0.03262187
103	0x3ea6e5bf	0.32597157
104	0xbe837079	-0.25671747
105	0x3e4d6070	0.20056319
106	0xbfc7fce2	-1.5624049
107	0x3fd14359	1.6348678
108	0xbe90c73f	-0.28277013
109	0xbce67dc6	-0.028136145
110	0xbd0eb3e7	-0.034839537
111	0x3e20e598	0.15712583
112	0xbcd46371	-0.025926324
113	0xbd4c04a7	-0.049809124
114	0xbe8c591f	-0.27411744
115	0x4055290f	3.330631
116	0xbe6874a4	-0.22700745
117	0xbe4a29d3	-0.19742517
118	0xbb935778	-0.004496511
119	0x3cad7ca4	0.021177597
120	0xbf473b37	-0.7782473
121	0xbe992f4a	-0.2991889
122	0xbdd2c6dc	-0.10291836
123	0xbf644698	-0.8917022
124	0xbcfdfdd2	-0.03100482
125	0x3dbb8abd	0.091573216
126	0x3a6449f9	0.00087085326
127	0x3a13dada	0.00056402164
128	0x3eaadbc6	0.333708
129	0xbdc908e2	-0.098161474
130	0x3e9c6ad1	0.30550244
131	0xbe7a99cc	-0.24472731
132	0x3daacbba	0.08339639
133	0xbe85e1ba	-0.26148778
134	0x3e5eced5	0.21758588
135	0x3dec3c36	0.11534922
136	0xbf5df040	-0.8669472
137	0xbee74c3a	-0.45175344
138	0x3e53947a	0.20662108
139	0xbf05bf91	-0.5224543
140	0xbc96c441	-0.018404128
141	0x3ced6f6c	0.028983794
142	0x3b6288e3	0.0034566454
143	0x390c1cf6	0.00013362229
144	0xbe5b68ea	-0.2142674
145	0x3dd4e978	0.10396093
146	0xbe64492c	-0.22293538
147	0x3e9e317c	0.3089713
148	0x3e714733	0.23562317
149	0xbe2b5d6f	-0.16734861
150	0xbe23b09b	-0.15985338
151	0xbd5cef87	-0.05393937
152	0xbe7a0545	-0.24416073
153	0xbdea15e4	-0.114299566
154	0x3dcc9b95	0.099906124
155	0x3e93047e	0.28714365
156	0x3c85aa67	0.016316606
157	0x3e8d4885	0.2759439
158	0x3e544391	0.207289
159	0x3e8b5b35	0.27218023
160	0xbc4a8f52	-0.012363272
161	0xbe7764f5	-0.24159606
162	0xbe669f46	-0.22521695
163	0x3e862f44	0.26207936
164	0x3e1fa276	0.15589318
165	0xbdf40e62	-0.11916806
166	0x3c5e3ced	0.0135643305
167	0xbe66b75c	-0.22530884
168	0x3e4b8e6d	0.1987855
169	0x3d09ef22	0.03367532
170	0xb8220797	-3.863088e-05
171	0xbe63bde7	-0.22240411
172	0x3e86eab4	0.2635094
173	0xbe3568bc	-0.17715734
174	0xbe9909dc	-0.29890335
175	0x3dd40d20	0.10354066
176	0x3de741b0	0.11291826
177	0x3f3bb943	0.7332956
178	0xbe7e1d61	-0.24815895
179	0xbe40f6a8	-0.18844092
180	0x3d976614	0.07392517
181	0x39219913	0.00015411181
182	0x3e3e112f	0.18561243
183	0xbe028503	-0.12746052
184	0x3e3023e4	0.17201191
185	0xbe96d209	-0.2945712
186	0x3fae3ee2	1.361294
187	0xbf3fe745	-0.74962264
188	0xbe5e027a	-0.21680632
189	0xbdd5c21f	-0.10437416
190	0x3d655ea7	0.05599847
191	0x3d39fce6	0.0454072
192	0xbe0e4e65	-0.13897093
193	0xbe57ff67	-0.21093522
194	0x3e8475a0	0.2587099
195	0xbd6073f0	-0.054798067
196	0xbe5a7ffe	-0.21337888
197	0xbd233ab1	-0.039850894
198	0xbe6edf01	-0.23327257
199	0xbd8ce60c	-0.068798155
200	0x3f6a8e9a	0.9162384
201	0x3c890516	0.016726058
202	0x3dfba757	0.12287777
203	0xbc894a8d	-0.016759181
204	0xba432d14	-0.0007445377
205	0xbbcb2057	-0.0061989236
206	0x396e25a3	0.0002271147
207	0x389011a8	6.869744e-05
208	0x3e415551	0.18880202
209	0xbdc141dc	-0.0943639
210	0x3d84870e	0.06471072
211	0x3d6043a3	0.054752003
212	0xbe2edd2b	-0.17076556
213	0x3e3d3ef6	0.18481049
214	0x3e30afa0	0.17254496
215	0xbc45f7f0	-0.012083039
216	0xbe8e2255	-0.27760568
217	0xbe875928	-0.26435208
218	0xbe9cb103	-0.306038
219	0xbf1cd1c0	-0.61257553
220	0x3e5f692c	0.21817464
221	0x3e04e652	0.12978485
222	0x3a50af89	0.0007960727
223	0x393ca69a	0.00017991141
224	0xbef96146	-0.48707026
225	0x3ee207ee	0.44146675
226	0xbf80dfde	-1.0068319
227	0x3fcba378	1.5909262
228	0xbe534ab6	-0.20633969
229	0xbddb6e51	-0.107144006
230	0x3d6b8fd4	0.057510212
231	0x3de5a594	0.11213222
232	0xbd58a29c	-0.05288945
233	0xbe0bb83f	-0.13644503
234	0x3e8e512b	0.277963
235	0xbe86cf01	-0.26329806
236	0x3dfdf465	0.1240013
237	0xbeb242ac	-0.34816492
238	0x3e13fe43	0.14452462
239	0x3e789988	0.24277318
240	0xbe453256	-0.19257483
241	0x3e887f6a	0.2665971
242	0xbe9c0ba1	-0.30477622
243	0xbeaf49d7	-0.34236023
244	0x3eafd637	0.3434312
245	0xbeadb063	-0.33923635
246	0xbeabcc43	-0.33554277
247	0x3eacb41c	0.33731163
248	0x3c7c2768	0.015390255
249	0x3f476be4	0.77899003
250	0xbe1eedba	-0.15520373
251	0x3ea04632	0.31303555
252	0x3a187dbf	0.00058170775
253	0x3e4a9753	0.19784288
254	0x3a5439f2	0.0008095793
255	0x3968ec61	0.00022213302

bias f4 [32]
0	0x3d321224	0.04347433
1	0xbdc35695	-0.095379986
2	0x3ca416b7	0.020030363
3	0x3d8558bc	0.06511065
4	0xbd0feefe	-0.03514003
5	0x3e147939	0.14499368
6	0x3d800832	0.06251563
7	0xbdaaaca8	-0.08333713
8	0x3e1b2a9c	0.15152973
9	0xbde7e9e0	-0.11323905
10	0x3d5c1249	0.053728376
11	0xbc12585d	-0.0089322
12	0xbd9f1ce6	-0.07769184
13	0xbc8da1a8	-0.017288998
14	0x3db2e99c	0.08735964
15	0xbcdde013	-0.027084386
16	0x3da269ca	0.07930334
17	0xbd5396e8	-0.051657587
18	0xbab06780	-0.001345858
19	0x3cfccbab	0.030858835
20	0x3df6191c	0.12016508
21	0x3caae198	0.020859525
22	0x3c1ddad0	0.0096346885
23	0x3d999884	0.07499793
24	0xbdefcdae	-0.11709152
25	0x3dbed71b	0.09318372
26	0xbcc66bf1	-0.024221392
27	0x3b22e7c0	0.0024857372
28	0x3e37496c	0.17899102
29	0x3c989ca4	0.01862938
30	0x3e088f5f	0.13335942
31	0x3d16adef	0.03678697

weight_g f4 [32, 1, 1]
0	0x3f1b54d9	0.6067634
1	0x3f00d1f4	0.50320363
2	0x3f996099	1.1982604
3	0x3f1c8972	0.61147225
4	0x3ef42e64	0.47691643
5	0x4020bfe1	2.5117114
6	0x3f23e89b	0.640268
7	0x3f182018	0.5942397
8	0x4018c635	2.3870976
9	0x3f20c110	0.6279459
10	0x3fc0cb0d	1.5061966
11	0x3eeec91c	0.4663781
12	0x3f1432d5	0.57890064
13	0x3f28adc5	0.6589015
14	0x3f12f538	0.57405424
15	0x3f978c6f	1.1839732
16	0x3f61c3a9	0.8818918
17	0x3f1de7ac	0.6168163
18	0x3f05c989	0.52260643
19	0x4021f3a4	2.5304956
20	0x3f13a180	0.57668304
21	0x3f1b9309	0.6077123
22	0x3f11819f	0.5683841
23	0x3ff92863	1.946545
24	0x3f07db48	0.5306897
25	0x3fb762ee	1.4327066
26	0x3fad561e	1.3541906
27	0x3f22a92b	0.6353938
28	0x4049a22e	3.1505237
29	0x40266caa	2.6003823
30	0x3fcb0ef3	1.5863937
31	0x3f1146f2	0.5674888

weight_v f4 [32, 32, 2]
0	0x3dbe3852	0.09288086
1	0xbda23f30	-0.07922208
2	0xbc816a68	-0.015797809
3	0xbcdaca90	-0.026707917
4	0xbd50ae58	-0.050947517
5	0xbd4a9ce4	-0.04946603
6	0x3dcdd65a	0.1005065
7	0xbba54b80	-0.0050444007
8	0xbdc780dc	-0.09741375
9	0xbdf7bbfa	-0.120964006
10	0x3dc61f8c	0.09673986
11	0xbdc22d66	-0.09481315
12	0xbd73b9fc	-0.05950354
13	0xbd59b280	-0.053148746
14	0xbbe539e0	-0.0069954246
15	0xbd65787c	-0.056023106
16	0xbddfa50a	-0.109201506
17	0x3db0ac02	0.08626558
18	0x3d6b3fc4	0.05743386
19	0x3d707804	0.058708206
20	0x3d88de08	0.06682974
21	0x3ddd152c	0.10795054
22	0x3d9dff82	0.0771475
23	0xbd76fb60	-0.060298324
24	0x3dcb4cfa	0.099267915
25	0x3d5c6ec4	0.05381657
26	0xbde39006	-0.11111455
27	0x3d46226c	0.04837267
28	0xbdf3d2b8	-0.11905426
29	0x3d399058	0.045303673
30	0x3d0e5054	0.034744576
31	0x3d3d2eb8	0.046187133
32	0x3d95abbc	0.07308146
33	0xbb21ac00	-0.002466917
34	0x3d404bfc	0.046947464
35	0x3ca33e40	0.019927144
36	0xbb5f7600	-0.0034097433
37	0xbde16510	-0.11005604
38	0xbddee0f0	-0.10882747
39	0x3dd16396	0.10224073
40	0xbceceac8	-0.028920546
41	0xbdbe1e0a	-0.09283073
42	0x3dbce434	0.09223214
43	0x3dd62dd0	0.10457957
44	0x3d983442	0.074318424
45	0x3ca854a8	0.02054818
46	0xbc3d2090	-0.011543408
47	0x3daba7ae	0.08381592
48	0xbdad59e2	-0.084644094
49	0xbdecbb66	-0.11559181
50	0xbd50a960	-0.05094278
51	0xbdbb5fbe	-0.09149121
52	0xbc63d120	-0.01390484
53	0x3dcea0b4	0.100892454
54	0xbde84654	-0.11341539
55	0x3ac38d00	0.0014919341
56	0x3d7e1610	0.06203276
57	0xbdd668ea	-0.104692295
58	0xbbbb2f80	-0.0057124496
59	0xbdead924	-0.114671975
60	0xbc8a2ab8	-0.016866073
61	0xbdefe388	-0.1171332
62	0x3ce44fc0	0.027870059
63	0x3d87fc56	0.06639926
64	0x3d8b443d	0.06800125
65	0x3d16542a	0.03670136
66	0xbd87e76e	-0.066359386
67	0xbdef6ab7	-0.11690276
68	0xbdc5d952	-0.09660591
69	0xbda18a19	-0.07887668
70	0x3d8f680f	0.070022695
71	0x3e17000d	0.14746113
72	0x3b4daa3d	0.0031381988
73	0xbe00dd7a	-0.12584487
74	0xbd28e4df	-0.041233893
75	0xbd84ef3b	-0.06490942
76	0xbdaa3889	-0.083115645
77	0x3daa4422	0.083137766
78	0xbdb49925	-0.088182725
79	0xbabe88ee	-0.0014536658
80	0x3780fa03	1.537521e-05
81	0xbdc1dae1	-0.09465576
82	0xbe073264	-0.13202816
83	0xbd0fc027	-0.03509536
84	0xbb97f99d	-0.0046379105
85	0xbd054db6	-0.032544814
86	0xbd8ccb30	-0.068746924
87	0xbdedeead	-0.116177894
88	0xbe0ed3fb	-0.13948052
89	0xbdd14a79	-0.10219283
90	0xbd22c351	-0.03973705
91	0x3db99cdd	0.090631224
92	0xbd218b7b	-0.03943966
93	0xbd5c569c	-0.053793535
94	0xbca85518	-0.020548388
95	0x3d937d09	0.07201583
96	0xbafcacff	-0.0019277631
97	0xb86b31b3	-5.6074652e-05
98	0x3c343764	0.010999534
99	0xbd53ed12	-0.05173976
100	0xbd8e0e34	-0.06936303
101	0x35b629b3	1.3572193e-06
102	0xbdd23980	-0.102648735
103	0x3d0d6153	0.034516644
104	0x3db160f5	0.08661071
105	0xbdead801	-0.11466981
106	0xbdb547ba	-0.088515714
107	0xbdd3ba27	-0.1033824
108	0xbe13864c	-0.14406699
109	0x3d435ca6	0.04769578
110	0xbc1a8681	-0.009431482
111	0x3d857660	0.06516719
112	0x3dc4c5e5	0.09608058
113	0x3e0d28b6	0.13785061
114	0xbe026374	-0.12733251
115	0xbdadbf63	-0.0848377
116	0xbd90a4d0	-0.070626855
117	0x364e8ed3	3.0779527e-06
118	0xbe155874	-0.14584523
119	0x3dd8c84c	0.105850786
120	0xbe01b98a	-0.12668434
121	0xbe072149	-0.13196291
122	0x3e10fc74	0.14158803
123	0xb23e4398	-1.1074825e-08
124	0xbda0e5b0	-0.078563094
125	0x3e0757d8	0.13217103
126	0xbde893c4	-0.11356309
127	0xbe0a1307	-0.13483821
128	0xbebb82c9	-0.3662322
129	0xbece2605	-0.40263382
130	0xaed039cc	-9.469012e-11
131	0xa13bb167	-6.3592855e-19
132	0xbecfbd6f	-0.40574214
133	0x3f07aad3	0.5299503
134	0xbf21962d	-0.63119775
135	0x3babcd3c	0.0052429717
136	0x3453013b	1.9651354e-07
137	0x37c38535	2.330784e-05
138	0xbeff03ad	-0.49807492
139	0x3eaf71e0	0.34266567
140	0x3c8f06f0	0.017459363
141	0xbcf5bc2b	-0.029996952
142	0xbd9c61a2	-0.076358095
143	0x3ee9fa2c	0.45698678
144	0xb4fac443	-4.6708928e-07
145	0x29cf41d1	9.204064e-14
146	0xb0e7d2f8	-1.6867423e-09
147	0x33faf3f5	1.1685908e-07
148	0x3eb8d91a	0.36103135
149	0xbea0ffdb	-0.31445202
150	0x9e5b6439	-1.1614489e-20
151	0x29b09387	7.841562e-14
152	0x315ba8c3	3.1964624e-09
153	0x29aff909	7.814762e-14
154	0x3efb43a1	0.49075034
155	0xbdd97944	-0.10618833
156	0x3f346362	0.70464146
157	0x3ea77059	0.32702902
158	0x3c872434	0.016496755
159	0xbd05d877	-0.03267714
160	0x3c8aa99f	0.016926585
161	0xbd362e7b	-0.04447792
162	0xbc4aec1c	-0.012385394
163	0xbc8517a6	-0.016246628
164	0xb5188d6b	-5.68302e-07
165	0x37cf00bc	2.4676665e-05
166	0x2f3cbe32	1.7166071e-10
167	0x2b92aabd	1.0421313e-12
168	0x3108fe70	1.9935236e-09
169	0xa2ca05ea	-5.475847e-18
170	0x3cffec63	0.031240648
171	0x9de411ac	-6.036937e-21
172	0x3ea4cfab	0.32189688
173	0x3c61ab49	0.013773748
174	0xbf3a6535	-0.7281068
175	0x3ec6de4e	0.3884148
176	0x29c67ea7	8.814937e-14
177	0xa9abefd7	-7.635531e-14
178	0xbe18f314	-0.14936477
179	0x3ed1736f	0.4090838
180	0x37b6172f	2.1706886e-05
181	0x3b7b6f94	0.0038366066
182	0xbd213755	-0.03935941
183	0x3b733f76	0.0037116683
184	0x3e94a8c8	0.2903502
185	0xbd95b9c8	-0.073108256
186	0x310e2910	2.068706e-09
187	0x33999d2f	7.153209e-08
188	0xb3c9c7bc	-9.396123e-08
189	0x241e5153	3.4329673e-17
190	0x3ee67715	0.45012727
191	0xbd9f93af	-0.0779184
192	0xbb432800	-0.002977848
193	0xbcd63fa0	-0.026153386
194	0x3d7ee03c	0.062225565
195	0xbd46e748	-0.04856041
196	0xbbf90ea0	-0.0076006204
197	0x3df76fa2	0.12081839
198	0xbd574498	-0.05255565
199	0xbdd0ffee	-0.10205065
200	0xbd94efb0	-0.07272279
201	0xbd3954c8	-0.04524687
202	0x3d6a2f94	0.05717428
203	0xbd3879d0	-0.045038044
204	0xbdf3db16	-0.11907022
205	0x3dfd9532	0.123819724
206	0xbdc1d760	-0.09464908
207	0x3df3900e	0.118927106
208	0xbd870964	-0.06593588
209	0xbdea73d0	-0.11447871
210	0xbdc897a8	-0.09794551
211	0xbcd56c00	-0.026052475
212	0x3dde1ca2	0.10845305
213	0xbd0df9e8	-0.034662157
214	0x3c9f6ad0	0.019460112
215	0x3da25bb4	0.07927647
216	0x3dac357c	0.08408639
217	0x3d880464	0.066414624
218	0xbde4831a	-0.11157818
219	0xbda6af52	-0.081389084
220	0x3df7f884	0.121079475
221	0x3d253d74	0.04034181
222	0x3d632264	0.05545272
223	0xbc2657b0	-0.010152742
224	0xbdcd0442	-0.10010578
225	0x3deff45c	0.1171653
226	0xbd75141c	-0.05983363
227	0xbddfd300	-0.10928917
228	0x3da62828	0.08113128
229	0x3d60b8c0	0.05486369
230	0xbdfbd964	-0.12297323
231	0x3dacbde2	0.08434655
232	0xbdfc84c8	-0.123300135
233	0xbcc8ae20	-0.024497092
234	0xbdb3b39a	-0.08774491
235	0xbd3f9c4c	-0.046779916
236	0xbcf13ef8	-0.029448971
237	0xbbbec300	-0.0058215857
238	0xbdd8bba4	-0.105826646
239	0x3d605d28	0.05477634
240	0xbd2dd038	-0.0424349
241	0xbda468ee	-0.08027826
242	0xbce9c8d8	-0.028538153
243	0xbd065b7c	-0.03280209
244	0xbd5f5704	-0.054526344
245	0xbd639e10	-0.055570662
246	0xbd22c1b8	-0.039735526
247	0xbd978fc2	-0.074004665
248	0xbcb125b8	-0.021624431
249	0x3c540560	0.012940735
250	0xbd9c9768	-0.07646066
251	0xbdc08d9c	-0.0940201
252	0x3d9bcb90	0.07607186
253	0x3db64e88	0.089016974
254	0x3ddc06da	0.10743494
255	0xbce89c88	-0.028394952

weight f4 [32, 32, 2]
0	0x3dbe3851	0.09288085
1	0xbda23f30	-0.07922208
2	0xbc816a67	-0.015797807
3	0xbcdaca8f	-0.026707916
4	0xbd50ae57	-0.050947513
5	0xbd4a9ce4	-0.04946603
6	0x3dcdd659	0.10050649
7	0xbba54b7f	-0.0050444
8	0xbdc780db	-0.09741374
9	0xbdf7bbf9	-0.120964
10	0x3dc61f8b	0.09673985
11	0xbdc22d65	-0.094813146
12	0xbd73b9fb	-0.059503537
13	0xbd59b280	-0.053148746
14	0xbbe539df	-0.006995424
15	0xbd65787b	-0.056023102
16	0xbddfa509	-0.1092015
17	0x3db0ac01	0.08626557
18	0x3d6b3fc3	0.057433855
19	0x3d707804	0.058708206
20	0x3d88de07	0.06682973
21	0x3ddd152b	0.10795053
22	0x3d9dff81	0.07714749
23	0xbd76fb5f	-0.06029832
24	0x3dcb4cf9	0.09926791
25	0x3d5c6ec3	0.053816568
26	0xbde39005	-0.11111454
27	0x3d46226b	0.048372667
28	0xbdf3d2b7	-0.11905425
29	0x3d399057	0.04530367
30	0x3d0e5054	0.034744576
31	0x3d3d2eb7	0.04618713
32	0x3d95abbb	0.073081456
33	0xbb21abff	-0.0024669168
34	0x3d404bfb	0.04694746
35	0x3ca33e3f	0.019927142
36	0xbb5f75ff	-0.003409743
37	0xbde1650f	-0.110056035
38	0xbddee0ef	-0.108827464
39	0x3dd16395	0.10224072
40	0xbceceac7	-0.028920544
41	0xbdbe1e09	-0.092830725
42	0x3dbce433	0.09223213
43	0x3dd62dd0	0.10457957
44	0x3d983441	0.07431842
45	0x3ca854a7	0.020548178
46	0xbc3d208f	-0.011543407
47	0x3daba7ad	0.08381591
48	0xbdad59e2	-0.084644094
49	0xbdecbb65	-0.1155918
50	0xbd50a95f	-0.050942775
51	0xbdbb5fbe	-0.09149121
52	0xbc63d11f	-0.013904839
53	0x3dcea0b3	0.10089245
54	0xbde84653	-0.11341538
55	0x3ac38cff	0.001491934
56	0x3d7e160e	0.06203275
57	0xbdd668e9	-0.10469229
58	0xbbbb2f80	-0.0057124496
59	0xbdead923	-0.11467197
60	0xbc8a2ab7	-0.016866071
61	0xbdefe386	-0.117133185
62	0x3ce44fbf	0.027870057
63	0x3d87fc55	0.066399254
64	0x3d485475	0.04890867
65	0x3cd83e14	0.026396789
66	0xbd437e37	-0.04772779
67	0xbdac323d	-0.0840802
68	0xbd8e4c9c	-0.06948206
69	0xbd685e5f	-0.056730624
70	0x3d4e48f8	0.050362557
71	0x3dd93555	0.106058754
72	0x3b13ebbb	0.0022570926
73	0xbdb95e2b	-0.09051164
74	0xbcf2f2ae	-0.029656734
75	0xbd3f38b2	-0.04668493
76	0xbd74db46	-0.059779428
77	0x3d74ebf4	0.059795335
78	0xbd81e45a	-0.06342383
79	0xba8909ed	-0.0010455229
80	0x37398737	1.1058341e-05
81	0xbd8b6d3c	-0.06807944
82	0xbdc279cc	-0.09495887
83	0xbccec7b1	-0.025241705
84	0xbb5a9c51	-0.0033357332
85	0xbcbfc09a	-0.02340727
86	0xbd4a86d2	-0.04944498
87	0xbdab20e7	-0.08355885
88	0xbdcd73f6	-0.100318834
89	0xbd968759	-0.07350034
90	0xbcea20ed	-0.028580153
91	0x3d857fa5	0.06518487
92	0xbce8605e	-0.028366264
93	0xbd1e796f	-0.038690027
94	0xbc7223dc	-0.014779057
95	0x3d542821	0.051796082
96	0xbab5bb84	-0.0013865088
97	0xb82928bd	-4.033068e-05
98	0x3c019e0c	0.0079112165
99	0xbd186c8a	-0.037212886
100	0xbd4c5778	-0.049888104
101	0x35830472	9.761554e-07
102	0xbd973344	-0.07382825
103	0x3ccb5ec9	0.02482547
104	0x3d7f2724	0.062293187
105	0xbda8e83a	-0.08247419
106	0xbd8261eb	-0.063663326
107	0xbd9847eb	-0.07435592
108	0xbdd43575	-0.103617586
109	0x3d0c82b2	0.03430433
110	0xbbde477a	-0.006783423
111	0x3d3ffb19	0.046870325
112	0x3d8d8683	0.06910422
113	0x3dcb0d5b	0.09914657
114	0xbdbb8f23	-0.091581605
115	0xbd79edfe	-0.061017983
116	0xbd50109c	-0.05079709
117	0x36149023	2.2137617e-06
118	0xbdd6d400	-0.104896545
119	0x3d9beab5	0.07613126
120	0xbdba9ab8	-0.091115415
121	0xbdc26131	-0.09491194
122	0x3dd08eae	0.10183464
123	0xb208d80e	-7.965367e-09
124	0xbd6771e1	-0.056505088
125	0x3dc2afab	0.09506162
126	0xbda746e7	-0.081678204
127	0xbdc69d6b	-0.09697994
128	0xbe5e5153	-0.2171071
129	0xbe746a3a	-0.23868647
130	0xae76e0b7	-5.613351e-11
131	0xa0de889a	-3.7698658e-19
132	0xbe764d44	-0.24052912
133	0x3ea0d9c0	0.3141613
134	0xbebf94cc	-0.3741821
135	0x3b4bb146	0.0031081005
136	0x33fa2c36	1.1649574e-07
137	0x3767d05c	1.3817185e-05
138	0xbe972cff	-0.29526517
139	0x3e50030a	0.2031366
140	0x3c29939b	0.010350133
141	0xbc91acc4	-0.017782576
142	0xbd3968e6	-0.045266055
143	0x3e8ab467	0.2709076
144	0xb494a85e	-2.7689651e-07
145	0x2975bab4	5.4562867e-14
146	0xb0896da4	-9.999224e-10
147	0x3394c4a3	6.927555e-08
148	0x3e5b291b	0.21402399
149	0xbe3ee292	-0.18641117
150	0x9e020edf	-6.885218e-21
151	0x29515a75	4.648578e-14
152	0x31023780	1.8949038e-09
153	0x2950a349	4.6326905e-14
154	0x3e94f3df	0.2909231
155	0xbd80ebd3	-0.0629498
156	0x3ed5df74	0.41772044
157	0x3e468511	0.19386698
158	0x3c203a24	0.009779487
159	0xbc9eb0d4	-0.019371428
160	0x3c2466e3	0.010034296
161	0xbcd7ffc6	-0.02636708
162	0xbbf09701	-0.00734222
163	0xbc1dcc37	-0.009631208
164	0xb4b4deba	-3.3689668e-07
165	0x37756d8a	1.4628642e-05
166	0x2edfc749	1.0176266e-10
167	0x2b2de45f	6.1778875e-13
168	0x30a26c68	1.1817862e-09
169	0xa26f8615	-3.2461522e-18
170	0x3c97b6f4	0.018519856
171	0x9d8733c6	-3.5787735e-21
172	0x3e436785	0.19082458
173	0x3c05c78e	0.008165253
174	0xbedcfebd	-0.431631
175	0x3e6bc88f	0.23025726
176	0x296b5726	5.225607e-14
177	0xa94bda4d	-4.52644e-14
178	0xbdb55743	-0.088545345
179	0x3e785492	0.24251011
180	0x3757e427	1.28681195e-05
181	0x3b150ded	0.0022743896
182	0xbcbf2459	-0.023332762
183	0x3b103351	0.0022003243
184	0x3e304117	0.1721233
185	0xbd3184c4	-0.043339506
186	0x30a88c8b	1.2263554e-09
187	0x333620f1	4.2405137e-08
188	0xb36f3c5c	-5.570142e-08
189	0x23bbb49a	2.0351068e-17
190	0x3e889f69	0.2668412
191	0xbd3d32cd	-0.046191026
192	0xbb4327ff	-0.0029778478
193	0xbcd63f9f	-0.026153384
194	0x3d7ee03b	0.06222556
195	0xbd46e747	-0.048560407
196	0xbbf90e9e	-0.0076006195
197	0x3df76fa1	0.120818384
198	0xbd574497	-0.052555647
199	0xbdd0ffed	-0.10205064
200	0xbd94efb0	-0.07272279
201	0xbd3954c7	-0.045246866
202	0x3d6a2f93	0.057174277
203	0xbd3879cf	-0.04503804
204	0xbdf3db14	-0.1190702
205	0x3dfd9530	0.12381971
206	0xbdc1d75f	-0.09464907
207	0x3df3900d	0.1189271
208	0xbd870963	-0.06593587
209	0xbdea73cf	-0.1144787
210	0xbdc897a7	-0.097945504
211	0xbcd56bff	-0.026052473
212	0x3dde1ca1	0.10845304
213	0xbd0df9e8	-0.034662157
214	0x3c9f6acf	0.01946011
215	0x3da25bb3	0.079276465
216	0x3dac357b	0.08408638
217	0x3d880464	0.066414624
218	0xbde48319	-0.111578174
219	0xbda6af51	-0.08138908
220	0x3df7f883	0.12107947
221	0x3d253d73	0.040341806
222	0x3d632262	0.055452712
223	0xbc2657b0	-0.010152742
224	0xbdcd0441	-0.10010577
225	0x3deff45b	0.11716529
226	0xbd75141b	-0.059833627
227	0xbddfd300	-0.10928917
228	0x3da62827	0.08113127
229	0x3d60b8bf	0.054863688
230	0xbdfbd962	-0.12297322
231	0x3dacbde2	0.08434655
232	0xbdfc84c6	-0.12330012
233	0xbcc8ae1f	-0.02449709
234	0xbdb3b399	-0.0877449
235	0xbd3f9c4b	-0.046779912
236	0xbcf13ef6	-0.029448967
237	0xbbbec2ff	-0.005821585
238	0xbdd8bba3	-0.10582664
239	0x3d605d27	0.054776337
240	0xbd2dd037	-0.042434897
241	0xbda468ed	-0.080278255
242	0xbce9c8d7	-0.02853815
243	0xbd065b7c	-0.03280209
244	0xbd5f5702	-0.054526336
245	0xbd639e0f	-0.05557066
246	0xbd22c1b8	-0.039735526
247	0xbd978fc1	-0.07400466
248	0xbcb125b7	-0.02162443
249	0x3c54055f	0.012940734
250	0xbd9c9767	-0.07646065
251	0xbdc08d9b	-0.09402009
252	0x3d9bcb8f	0.07607185
253	0x3db64e87	0.08901697
254	0x3ddc06d8	0.10743493
255	0xbce89c87	-0.02839495

weight f4 [32, 4, 1]
0	0xbaab96a6	-0.0013091161
1	0xbb95d540	-0.0045725405
2	0x3ae03957	0.0017106932
3	0xbc349fd8	-0.011024438
4	0x3ddd2f2f	0.10800015
5	0xc09c211e	-4.8790426
6	0x40a23fef	5.0703044
7	0x3f6032f4	0.8757775
8	0xbc4286a5	-0.011872922
9	0x3fc8a334	1.5674806
10	0x40065672	2.0990262
11	0xc09741c5	-4.7267785
12	0x3c18117d	0.009281513
13	0x3c261094	0.0101357885
14	0x3bb0a4f8	0.0053907596
15	0xbb7f0705	-0.0038914096
16	0x3dccfda8	0.100093186
17	0xc0a045c3	-5.008516
18	0xbdab710e	-0.08371173
19	0xbfa86a5a	-1.3157456
20	0x3dbcd114	0.09219566
21	0xc035e0f3	-2.8418548
22	0x3ff4b3ee	1.911741
23	0x3ee59fa1	0.4484835
24	0x3bb73df0	0.0055921003
25	0xbb3195dd	-0.0027097382
26	0x3c4d0666	0.012513733
27	0xbc68b8c0	-0.014204204
28	0xbbed7078	-0.0072460733
29	0x3c5c553e	0.013448058
30	0xbb99eec9	-0.004697655
31	0xb99cb6a5	-0.0002989072
32	0xbe834310	-0.25637102
33	0xbe8a882d	-0.2705702
34	0x3e56f277	0.2099093
35	0x401c0326	2.4376922
36	0xbc240165	-0.010010098
37	0xbadda24b	-0.0016909329
38	0x3b12696d	0.002234067
39	0xbc96d56e	-0.018412318
40	0xbe8bf574	-0.27335703
41	0xbf90182b	-1.1257375
42	0x3ddd2cfb	0.10799595
43	0xc0aa715f	-5.3263392
44	0xbd77d5df	-0.060506698
45	0xbcf156b9	-0.029460298
46	0x3c419a6b	0.011816601
47	0xbcd32e57	-0.025778932
48	0x3c5f42ea	0.013626793
49	0x392e76d2	0.00016638197
50	0xbb9939dd	-0.0046760873
51	0xbc32b994	-0.010908503
52	0xc017170a	-2.3607812
53	0xc0c25825	-6.07326
54	0x3dcc4abe	0.099751934
55	0xbf98c10e	-1.1933916
56	0x3c80ce06	0.01572324
57	0x3bff3c78	0.007789191
58	0x3bc64eea	0.0060518878
59	0x3c071176	0.008243909
60	0x3f4b0da0	0.79317665
61	0x3fc1eb99	1.5150024
62	0xbc1225c8	-0.008920141
63	0xbf8b1132	-1.0864623
64	0xc0923f1e	-4.5702047
65	0xc0c04612	-6.0085535
66	0xc0ea20a7	-7.316486
67	0x3de57492	0.11203875
68	0x3cacae78	0.021079287
69	0xbb67e573	-0.0035384565
70	0xbb18472e	-0.0023235786
71	0xbafb5d70	-0.0019177627
72	0xbbf933d8	-0.007605057
73	0xbbce36b5	-0.0062931427
74	0xbb43ec72	-0.002989557
75	0x3beac209	0.007164244
76	0x3f0a1cc3	0.53950137
77	0x3f8a37ff	1.0798339
78	0xbdaf85be	-0.08570431
79	0xbe891312	-0.26772362
80	0xbbabe6b8	-0.0052460097
81	0x3b8b2169	0.004245926
82	0xbc861148	-0.016365662
83	0xbc356941	-0.011072458
84	0xbbad01eb	-0.0052797697
85	0xbba716c0	-0.0050991476
86	0x3bcfc322	0.0063404003
87	0x3aa83819	0.0012834101
88	0xbc174e91	-0.00923504
89	0xbc3f3c0d	-0.011672032
90	0x3bbec127	0.0058213654
91	0x3c63b43d	0.013897953
92	0x3f447297	0.7673735
93	0x3f07462c	0.5284145
94	0xc0109308	-2.258974
95	0x40067088	2.1006184
96	0xbc02e092	-0.007988112
97	0x3c8b3e0c	0.01699736
98	0xb9b2ad75	-0.0003408004
99	0xba71f4be	-0.000922989
100	0x3d7bc713	0.06146915
101	0xbf861cc9	-1.0477535
102	0x3f1896bb	0.59604996
103	0x400112e9	2.0167792
104	0x3e00fe3b	0.12596981
105	0xc01dbc4f	-2.4646184
106	0xbf1f1c09	-0.62152153
107	0x3ffea250	1.9893284
108	0x3be3f33c	0.006956486
109	0x3ae3079d	0.0017320995
110	0x3c865237	0.016396625
111	0xbcc6936a	-0.024240214
112	0xbe05d26e	-0.13068554
113	0x3ec2422e	0.37941116
114	0xbe9940ab	-0.2993215
115	0xc0e693df	-7.2055507
116	0xbd6b5e71	-0.057463113
117	0x3fe9722a	1.8237965
118	0xbccc1789	-0.024913566
119	0x3fed4de6	1.8539398
120	0xbd64c9be	-0.05585646
121	0xbf290343	-0.660206
122	0x3f50a94a	0.81508315
123	0x4059d5da	3.4036775
124	0xbc0e32f3	-0.008679139
125	0xbc0a3e8b	-0.008437763
126	0x3bba8d31	0.005693101
127	0xbbc6ad6e	-0.006063155

bias f4 [32]
0	0xbea3a320	-0.31960392
1	0x3d9512cf	0.07278978
2	0xbb988e11	-0.0046556075
3	0xbec2cea4	-0.3804828
4	0x3d2c0a2e	0.042001896
5	0x3d01adbe	0.031659834
6	0xbe8a1380	-0.26968002
7	0xbed18968	-0.40925145
8	0xbcc52e3e	-0.024069902
9	0xbe942a9c	-0.28938758
10	0x3d0712b1	0.03297681
11	0xbd52c97c	-0.05146168
12	0xbefe2322	-0.4963618
13	0x3e9df58f	0.3085141
14	0xbea85264	-0.3287536
15	0xbe835bde	-0.25656027
16	0x3d8f8f9a	0.07009812
17	0xbef430ac	-0.47693384
18	0xbeda9a04	-0.4269563
19	0xbd4931a3	-0.049119603
20	0xbef415ec	-0.47672975
21	0xbeee78f2	-0.4657665
22	0xbebd7f42	-0.37011153
23	0xbd02e42f	-0.031955894
24	0xbe401f70	-0.18761992
25	0xbcff1e4d	-0.031142378
26	0x3d8fc954	0.07020822
27	0xbe953720	-0.2914362
28	0xbe01330c	-0.12617129
29	0xbb98a545	-0.0046583735
30	0xbd52677b	-0.051368218
31	0xbea3d1e4	-0.3199607

bias f4 [32]
0	0xbc63659f	-0.013879209
1	0x3cba0ce1	0.02271122
2	0xbdcb16fc	-0.09916493
3	0xbd4c3857	-0.049858417
4	0xbb7e4fd8	-0.0038804915
5	0x3d84aa88	0.06477839
6	0xbe363b85	-0.17796142
7	0x3d8b2cb3	0.06795635
8	0xbe19d4be	-0.15022561
9	0x3dd8b843	0.1058202
10	0xbd0af638	-0.03392622
11	0xbd8ff4f1	-0.07029141
12	0x3e1a140b	0.15046708
13	0xbb26706a	-0.0025396594
14	0xbcb2efa2	-0.021842781
15	0xbd14b60e	-0.036306433
16	0x3d96eea3	0.07369735
17	0xbdd40476	-0.10352413
18	0x3e033959	0.12814845
19	0xbe0c2295	-0.13685067
20	0xbdbc0f1e	-0.09182571
21	0xbdf1b952	-0.11802925
22	0xbd991ea1	-0.07476545
23	0xbe0e1aad	-0.13877364
24	0xbe038b2a	-0.12846056
25	0xbd5e933e	-0.05433964
26	0x3e1e726e	0.15473339
27	0x3d834d2b	0.06411203
28	0xbdec1122	-0.11526705
29	0xbc81e4a1	-0.01585609
30	0xbc433fdb	-0.01191708
31	0xbda4719a	-0.0802948

weight_g f4 [32, 1, 1]
0	0x3f13ccc6	0.57734334
1	0x404e25d4	3.2210588
2	0x3f9c2f62	1.220196
3	0x3fcc0599	1.5939208
4	0x400b8b6b	2.1803844
5	0x3f93071e	1.1486547
6	0x3f95edc2	1.1713183
7	0x3fcb19a3	1.5867199
8	0x3f0b739a	0.5447327
9	0x4011f13a	2.2803483
10	0x3f13bc94	0.5770962
11	0x3fcc3401	1.595337
12	0x3fbda9de	1.4817464
13	0x3fb477a7	1.4099015
14	0x3f1d28b3	0.6139023
15	0x3f80dcd2	1.0067389
16	0x3fb766c0	1.4328232
17	0x3f0a5009	0.54028374
18	0x4000491d	2.0044625
19	0x3f119f16	0.5688337
20	0x3eeac2ef	0.45851848
21	0x3f1169ea	0.5680224
22	0x401ee8eb	2.4829662
23	0x3f217b96	0.630792
24	0x3fcf789e	1.6208684
25	0x3fbeddf1	1.4911481
26	0x3ffb75bd	1.9645306
27	0x3fafec9c	1.3744082
28	0x3f043ac8	0.51652193
29	0x3f994130	1.1973019
30	0x401b90d1	2.430714
31	0x3fa26b19	1.2688934

weight_v f4 [32, 32, 2]
0	0xbc38ebc9	-0.011286684
1	0x3ddc641b	0.10761281
2	0xbc5c4faa	-0.013446728
3	0xbd248c03	-0.040172588
4	0xbde23264	-0.110447675
5	0xbc88c327	-0.016694618
6	0x3cb5566f	0.022135941
7	0x39febe00	0.00048588216
8	0xbdf92ac4	-0.1216636
9	0xbe0e8c13	-0.13920622
10	0x3c578f76	0.013156762
11	0xbe009366	-0.12556228
12	0xbd2dfdfe	-0.042478554
13	0xbd156281	-0.036470894
14	0xbc1697e1	-0.009191484
15	0x3d5276b7	0.051382747
16	0x3d9ff5ed	0.078105785
17	0xbd3c1235	-0.0459158
18	0xbc795e39	-0.015220218
19	0x3d0a614f	0.033784207
20	0x3db759e8	0.08952695
21	0xbe0da04b	-0.13830678
22	0xbd691750	-0.056907
23	0x3d53f359	0.051745746
24	0x3d1ae348	0.03781441
25	0x3c399fa2	0.011329563
26	0xbdd40774	-0.10352984
27	0x3d6c68f3	0.057717275
28	0x3cb9d598	0.022684857
29	0x3d0da369	0.03457967
30	0xbdfcaf00	-0.12338066
31	0x3daf6d1d	0.085657336
32	0x3cdc7b35	0.026914218
33	0xbd839932	-0.06425704
34	0xbda8b167	-0.08236962
35	0x3d99de64	0.07513121
36	0x3d6e1a5f	0.05813062
37	0x3c8ce29f	0.017197905
38	0xbdf09c70	-0.11748588
39	0xbd76741a	-0.060169317
40	0x3d80db3a	0.06291814
41	0xbd2c3f2d	-0.042052437
42	0xbd11888b	-0.03553061
43	0xbc6cb6f1	-0.0144479135
44	0x3bc99295	0.006151507
45	0xbcb849c3	-0.02249611
46	0x3aacfe94	0.0013198429
47	0xbdf1a2f5	-0.1179866
48	0xbc8dda42	-0.017315987
49	0xbd4ecf9a	-0.050490953
50	0xbc20bab4	-0.0098101385
51	0x3c743350	0.014904812
52	0xbe123d45	-0.14281185
53	0xbdd75adc	-0.10515377
54	0xbdafea1f	-0.08589577
55	0xbd4b093f	-0.049569365
56	0xbd0256f2	-0.0318212
57	0x3d98b046	0.074554965
58	0xbe102c5e	-0.14079425
59	0xbd6e837e	-0.05823087
60	0x3d80d5f3	0.062908076
61	0x3b333e03	0.0027350194
62	0x3d181cfa	0.03713701
63	0x3dcbf727	0.0995925
64	0x01ef36b5	8.7873235e-38
65	0x83efea74	-1.4100985e-36
66	0xbf2f97ee	-0.685912
67	0x3e63ea25	0.22257288
68	0x3e503a49	0.20334734
69	0xbed5729e	-0.41689008
70	0x83f2958e	-1.4257818e-36
71	0x93bdde3f	-4.792946e-27
72	0xbf0307c4	-0.51183724
73	0x3ec6d8ba	0.38837224
74	0xbefcf036	-0.49402016
75	0xbd9ae2de	-0.07562803
76	0x1faf656c	7.428317e-20
77	0x82845312	-1.9443337e-37
78	0x02522dbb	1.5441487e-37
79	0x82af9ccb	-2.5803934e-37
80	0xbe6a92d3	-0.22907571
81	0xbe468502	-0.19386676
82	0x0f6067e5	1.1064062e-29
83	0x273cc17e	2.6195133e-15
84	0xbea48eb1	-0.32140115
85	0x3d9b83a0	0.07593465
86	0xa62977dd	-5.87961e-16
87	0x02529d4a	1.5473503e-37
88	0x991a4751	-7.976016e-24
89	0x9b12e2c7	-1.2150113e-22
90	0x3d943883	0.07237341
91	0x3e4c5ab1	0.19956471
92	0x83b5e5a9	-1.0690951e-36
93	0x8caca035	-2.6597217e-31
94	0xbe13cbc0	-0.14433193
95	0x3e22d027	0.15899716
96	0xbea24d35	-0.3169953
97	0x3e8f9c37	0.2804887
98	0x04747ce6	2.8739413e-36
99	0x0d3baa40	5.7828755e-31
100	0x071bf45b	1.1732714e-34
101	0x840b81a6	-1.6398903e-36
102	0x3d1541b1	0.0364396
103	0xbd52506d	-0.05134623
104	0x91177acf	-1.1949643e-28
105	0x02520077	1.5428497e-37
106	0x99abc3e0	-1.7760099e-23
107	0x8face5f0	-1.7049078e-29
108	0x8bbc70b1	-7.2584525e-32
109	0x1a044122	2.7349574e-23
110	0xba1ff281	-0.00061015046
111	0x3ddc7fbf	0.10766553
112	0x0d46e17d	6.128488e-31
113	0x1bad9f18	2.872326e-22
114	0xbe12f464	-0.1435104
115	0xbe8fc3b6	-0.28079003
116	0xbf1bc5c9	-0.6084867
117	0xbc2c4eb8	-0.010516815
118	0x29136507	3.2728184e-14
119	0x287bc327	1.3975616e-14
120	0xbdd69029	-0.10476715
121	0xbe19e2b6	-0.1502789
122	0xbd7a1984	-0.06105949
123	0x3d2f492b	0.042794388
124	0xbd1c808b	-0.038208526
125	0xbe95bd4a	-0.2924598
126	0x219c8b7c	1.0607892e-18
127	0x1a923c80	6.048193e-23
128	0xa25a13ce	-2.9554994e-18
129	0x1c8eed5a	9.458126e-22
130	0xbde3945b	-0.11112281
131	0x3dd5013e	0.104006276
132	0x3e11bdf6	0.1423262
133	0x3d1e1522	0.038594373
134	0x25869383	2.3345252e-16
135	0xa5c31983	-3.3844395e-16
136	0xbd4eecd9	-0.050518844
137	0x3e588516	0.21144518
138	0x3e16bbbd	0.14720054
139	0xbd9e48e3	-0.07728746
140	0x2392317e	1.5850312e-17
141	0xa00006e7	-1.0844306e-19
142	0xb77f583e	-1.521973e-05
143	0xa50a1ef8	-1.1980085e-16
144	0x3e00071e	0.12502715
145	0x3d8e0588	0.06934649
146	0xae481df5	-4.5501342e-11
147	0xb4ba9b7a	-3.4758324e-07
148	0x3e41daa2	0.18931058
149	0xba479767	-0.0007613808
150	0x3b446036	0.0029964573
151	0x9244e73a	-6.2131704e-28
152	0xb9dea534	-0.00042466226
153	0xa5164231	-1.3032853e-16
154	0xbe9ef7e1	-0.31048492
155	0x3ecdcc6e	0.4019503
156	0x30df1148	1.6230297e-09
157	0x9d51aa89	-2.7749084e-21
158	0xbe98fecb	-0.29881892
159	0xbd4bea53	-0.049784016
160	0xbdc76b2e	-0.0973724
161	0x3e0b4941	0.13602163
162	0x9227224c	-5.2738183e-28
163	0x9b3216dc	-1.4731201e-22
164	0x25dea311	3.862136e-16
165	0x3c3e7a27	0.011625803
166	0xbe965347	-0.2936041
167	0x3e48ee73	0.19622211
168	0xa570e998	-2.0895826e-16
169	0x25db7072	3.806664e-16
170	0xac683cff	-3.3003043e-12
171	0x1f1c1367	3.3050334e-20
172	0xb60551be	-1.9866125e-06
173	0x3cb9198c	0.02259519
174	0xbe357748	-0.17721283
175	0xbe7d51b5	-0.247382
176	0x3685ed9d	3.9913707e-06
177	0xa5048f56	-1.1497739e-16
178	0x3dbdf7e7	0.09275799
179	0x3d25efaa	0.040511765
180	0x3da8f63a	0.08250089
181	0x3d6ad58a	0.057332553
182	0x9463381e	-1.14716384e-26
183	0x3a7d76fd	0.0009668915
184	0xbd182932	-0.037148662
185	0xbde926c4	-0.11384347
186	0xbe6bcba6	-0.23026904
187	0x3e06f5ca	0.13179699
188	0x3d52c137	0.051453795
189	0x3e110842	0.14163306
190	0x2cbf62a3	5.4394974e-12
191	0x3b621848	0.0034499336
192	0x3781eda2	1.5488655e-05
193	0xb32096ce	-3.739006e-08
194	0x3e08e8ca	0.13370052
195	0xbe823ae5	-0.25435558
196	0xbdaccb2a	-0.08437188
197	0xbcf70d0c	-0.030157588
198	0x389b364b	7.401089e-05
199	0x1cb3aca0	1.1889849e-21
200	0x3c904fa1	0.017616095
201	0xbe856ef2	-0.26061207
202	0xbc9e579b	-0.019328883
203	0xbe1eca17	-0.15506779
204	0x94ac13cd	-1.7375372e-26
205	0x21834001	8.893847e-19
206	0xb56dae46	-8.854298e-07
207	0x318654b5	3.9095434e-09
208	0xbefd18d7	-0.49433014
209	0x3e295747	0.165372
210	0xb760577b	-1.3371809e-05
211	0xaa47ff73	-1.7763377e-13
212	0xbe7469f0	-0.23868537
213	0x3e23cbcd	0.15995713
214	0xab7d5391	-8.999963e-13
215	0x2fc82254	3.640418e-10
216	0x2d8dd71a	1.6125368e-11
217	0xb9c15265	-0.00036873217
218	0x3e165f95	0.14684899
219	0x3ece4e71	0.4029422
220	0x17a0bc0c	1.0387227e-24
221	0x1d02223a	1.7223051e-21
222	0xbd866696	-0.065625355
223	0x3ec5056c	0.384807
224	0xbd1ec562	-0.038762458
225	0x3ec42e9d	0.38316813
226	0x28025d8d	7.236735e-15
227	0xbbe5e11f	-0.007015362
228	0x2f162ad8	1.3657642e-10
229	0xabe9a054	-1.6600146e-12
230	0xbe88d454	-0.26724494
231	0x3ea78dd3	0.3272539
232	0xbc88ccf0	-0.016699284
233	0xb8afe1ca	-8.386707e-05
234	0xbcad9f87	-0.021194233
235	0x359ebc03	1.1826636e-06
236	0x3cadff38	0.021239862
237	0xa4f11cec	-1.04566085e-16
238	0xbea79d70	-0.32737303
239	0x3dc1ca2b	0.094623886
240	0xab9dd972	-1.1215874e-12
241	0xa1406fee	-6.520027e-19
242	0xbdba545a	-0.0909812
243	0x3be0df08	0.006862525
244	0xbeb4255c	-0.35184753
245	0xbc0b4cd4	-0.008502204
246	0x9a05b2f2	-2.7648306e-23
247	0xab6c6580	-8.39849e-13
248	0xbf191cdd	-0.59809667
249	0x3e92357a	0.28556424
250	0x3e974a6b	0.29548964
251	0xbd72784c	-0.059196755
252	0xbea8386b	-0.32855543
253	0x3d35583f	0.04427361
254	0x3b1f4569	0.0024302846
255	0xb360db73	-5.2353652e-08
